model.pt (torch, 13044 bytes, 6 tensors)

fc1.weight f4 [32, 42]
0	0xbdfaf342	-0.12253429
1	0x3d727a10	0.05919844
2	0xbddc9168	-0.107699215
3	0xbe1c2601	-0.15248872
4	0xbdcfafd2	-0.10140957
5	0xbe59bfa5	-0.21264513
6	0x3e9d8c5d	0.3077115
7	0xbe082e72	-0.13298967
8	0x3f470efa	0.7775723
9	0xbde8f340	-0.11374521
10	0xbe41ae19	-0.18914069
11	0xbe8f108a	-0.27942306
12	0x3e5da9d5	0.21646817
13	0xbdf08bad	-0.11745391
14	0x3d43b199	0.047776792
15	0xbda37147	-0.0798059
16	0xbb5d5a6f	-0.0033775826
17	0xbd5a2aaf	-0.053263362
18	0xbdd67a2e	-0.10472523
19	0xbe95b494	-0.29239333
20	0x3e90a738	0.28252578
21	0x3d054584	0.032537
22	0x3dce22c9	0.100652285
23	0x3e60ea8c	0.21964473
24	0xbbfaa5b4	-0.007649148
25	0x3e888067	0.26660463
26	0xbe248cb9	-0.16069306
27	0x3d919f42	0.07110454
28	0x3e7de67b	0.24794953
29	0x3e287021	0.16449024
30	0x3e31bbe4	0.17356831
31	0xbd6dcbe6	-0.05805578
32	0x3d8c217e	0.06842326
33	0xbec57592	-0.38566262
34	0xbdcef923	-0.10106113
35	0xbd082381	-0.033236984
36	0x3d91dac5	0.07121805
37	0xbbdedcb7	-0.0068012136
38	0x3e238998	0.15970457
39	0xbc855732	-0.01627693
40	0x3ce57fd5	0.028015057
41	0xbd66a89a	-0.056313135
42	0x3e3ae4c8	0.18251336
43	0xbe6f42a5	-0.23365267
44	0x3dd00152	0.10156502
45	0x3d5d4c4b	0.054027837
46	0x3ea818e4	0.3283149
47	0x3efbaf86	0.4915735
48	0x3ea6f3d3	0.32607898
49	0x3f19cbd7	0.6007666
50	0x3e7a1db2	0.2442539
51	0x3e183f1e	0.14867827
52	0x3ebceb00	0.3689804
53	0x3f05a3f2	0.52203286
54	0xbda1ef97	-0.07907026
55	0x3eedc2a7	0.4643757
56	0x3dae3127	0.08505469
57	0x3e38e71d	0.18056913
58	0xbd96d566	-0.07364921
59	0x3bbb039f	0.005707219
60	0x3e5d1954	0.21591693
61	0x3e67e13b	0.22644512
62	0xbde236a3	-0.110455774
63	0x3e462696	0.19350657
64	0xbdc62faf	-0.09677064
65	0xbe759bc8	-0.23985207
66	0xbaae474a	-0.0013296392
67	0xbec9b404	-0.39395154
68	0x3e5703f0	0.20997596
69	0x3c98f21f	0.01867014
70	0xbe594f74	-0.21221715
71	0x3bc75485	0.0060830736
72	0xbea0335a	-0.31289178
73	0xbd8f2776	-0.069899485
74	0xbe5ed0b1	-0.21759297
75	0xbd8a7d81	-0.06762219
76	0x3d8a6f0c	0.06759462
77	0xbd84da84	-0.06486991
78	0xbe469762	-0.19393685
79	0xbe851266	-0.259906
80	0xbeaa81e5	-0.33302227
81	0xbe191f95	-0.14953454
82	0xbe8a36a4	-0.26994812
83	0xbe648967	-0.2231804
84	0x3d805696	0.06266515
85	0xbe2a1845	-0.1661082
86	0xbe2a878d	-0.16653271
87	0xbcc081f1	-0.02349946
88	0x3df4d39c	0.11954424
89	0xbe9ee8de	-0.3103704
90	0x3df083b8	0.11743873
91	0xbe579cc6	-0.21055898
92	0x3f17e176	0.593284
93	0x3e2d2548	0.16908753
94	0xbdfe3dfe	-0.12414168
95	0xbe993e2c	-0.29930246
96	0x3cf25bf2	0.029584859
97	0xbeb6d9f9	-0.35713175
98	0x3e42b26e	0.19013378
99	0xbecdd0b3	-0.40198287
100	0xbd323ef5	-0.04351707
101	0xbed0d18c	-0.40784872
102	0x3d0204a9	0.031742726
103	0xbcd632a0	-0.026147187
104	0x3d3bbb20	0.045832753
105	0xbda6471c	-0.08119032
106	0x3d92ecef	0.07174098
107	0xbe306d22	-0.17229131
108	0x3dbd7fd6	0.092528984
109	0x3d67a36c	0.056552336
110	0xbd4ee992	-0.05051572
111	0xbd7a9b49	-0.061183248
112	0x3e2c33e9	0.16816677
113	0xbe2bd703	-0.16781239
114	0xbda8759f	-0.082255594
115	0xbe9f8e16	-0.3116309
116	0x3d9e5520	0.0773108
117	0xbf0da5e7	-0.5533127
118	0xbdd03653	-0.101666115
119	0x3d94ccf6	0.07265656
120	0x3d84cc0a	0.0648423
121	0xbd8c6746	-0.06855635
122	0x3d84e9e5	0.06489924
123	0xbdbe02f5	-0.09277908
124	0x3e2aa0cc	0.16662902
125	0xbe8b5ef3	-0.27220878
126	0xbd27dfda	-0.040984966
127	0xbe068a32	-0.13138655
128	0xbd9f76b0	-0.0778631
129	0xbda77755	-0.08177058
130	0xbdf60d00	-0.12014198
131	0xbe88dbfc	-0.26730335
132	0xbe728bea	-0.23686185
133	0xbe8ac8d1	-0.27106336
134	0xbe9da0ab	-0.30786642
135	0xbe8e4c1e	-0.27792448
136	0x3ce3d6dc	0.027812414
137	0x3d0b83a4	0.03406109
138	0xbe117a93	-0.14206915
139	0x3d73a174	0.059480146
140	0xbdae0ea7	-0.084988885
141	0x3ef64d1e	0.4810571
142	0x3d985625	0.07438306
143	0x3f3e7885	0.7440265
144	0x3df34e54	0.11880174
145	0xbd8e3420	-0.06943536
146	0x3e4e8d39	0.2017106
147	0xbcd1701a	-0.02556615
148	0x3e272064	0.1632095
149	0xbd0679d6	-0.032831036
150	0xbd9410f5	-0.07229797
151	0xbd2f15d8	-0.04274544
152	0xbd03c739	-0.032172415
153	0xbd9f1fb1	-0.077697165
154	0x3dd28910	0.10280049
155	0x3e2df7ca	0.16989055
156	0x3e64e462	0.22352746
157	0x3d86f5a8	0.06589824
158	0x3e91ff47	0.28515074
159	0x3ee7b6c1	0.45256618
160	0x3e89de20	0.2692728
161	0x3d332b5f	0.043742534
162	0x3e70e348	0.23524201
163	0x3dc6669c	0.0968754
164	0x3e849929	0.25898102
165	0x3dbdd118	0.09268397
166	0x3e5bc1b1	0.21460606
167	0xbd654bf3	-0.055980634
168	0xbd58ed96	-0.052960955
169	0x3d74cc8f	0.059765395
170	0xbe6036fc	-0.21895975
171	0x3e021693	0.12703924
172	0xbd545baa	-0.05184523
173	0x3e327cdb	0.17430441
174	0x3c0f78c2	0.008756818
175	0x3e3011d4	0.17194301
176	0x3e14e118	0.14538991
177	0x3e713182	0.23554042
178	0xbd3dbbf1	-0.046321813
179	0x3d3ac09e	0.04559385
180	0x3c99b969	0.018765168
181	0xbeb2434d	-0.3481697
182	0xbd263ace	-0.040583424
183	0xbf1de563	-0.6167814
184	0xbbd93819	-0.006629002
185	0xbf554ad7	-0.8331732
186	0xbe57d855	-0.21078618
187	0xbe29aadd	-0.16569085
188	0x3d432730	0.047644794
189	0xbe583769	-0.21114887
190	0xbdbff922	-0.0937369
191	0x3d35e017	0.04440316
192	0x3d490037	0.04907247
193	0xbe589557	-0.21150719
194	0xbe56d9a3	-0.2098146
195	0xbe072fe6	-0.13201866
196	0x3d56dd19	0.05245695
197	0xbe37933e	-0.17927262
198	0x3bfe42c1	0.0077594225
199	0xbe3f8780	-0.18704033
200	0xbe1381cb	-0.14404981
201	0xbdc3097e	-0.09523295
202	0xbdd118f9	-0.10209841
203	0xbd83de96	-0.06438939
204	0xbe4060a8	-0.18786871
205	0x3e0759ad	0.13217802
206	0xbe0a74d4	-0.13521129
207	0xbc8ab17c	-0.016930334
208	0xbd42e85a	-0.04758487
209	0x3da0a1bc	0.078433484
210	0xbe9a7ee6	-0.3017494
211	0x3e8b9da5	0.2726871
212	0xbd8bcde4	-0.0682638
213	0x3e6bc6de	0.2302508
214	0xbd2731e2	-0.040819056
215	0x3d3a598c	0.045495555
216	0xbe002453	-0.12513857
217	0x3e3ad2ea	0.1824452
218	0xbea063cc	-0.3132614
219	0x3dd5836d	0.10425458
220	0xbd958f97	-0.07302778
221	0x3caa9458	0.020822689
222	0xbdfb6e5c	-0.12276909
223	0x3d80f081	0.062958725
224	0x3d3e9376	0.04652735
225	0xbe38d196	-0.180487
226	0xbe037ee7	-0.12841378
227	0xbe43bab0	-0.19114184
228	0xbdf19f39	-0.117979474
229	0x3da55159	0.080721565
230	0xbe3123ab	-0.17298763
231	0x3da930a0	0.082612276
232	0xbe49a753	-0.19692735
233	0x3e097053	0.13421755
234	0xbe308345	-0.17237575
235	0x3eb66ff5	0.3563229
236	0xbe58a76f	-0.21157621
237	0x3d972f2e	0.07382046
238	0xbe1232b1	-0.1427715
239	0x3e79c8b5	0.2439297
240	0xbcfeae01	-0.03108883
241	0x3e832ad2	0.25618607
242	0xbdca9691	-0.098919995
243	0x3e89a952	0.26886994
244	0xbe29ecc4	-0.16594225
245	0xbdc140bd	-0.09436176
246	0xbddb3093	-0.10702624
247	0x3e543b87	0.20725833
248	0xbe383e48	-0.17992508
249	0x3e334fce	0.17510912
250	0xbe724559	-0.23659267
251	0x3dba4f5d	0.090971686
252	0xbecff9c9	-0.40620258
253	0x3eeb62b2	0.45973736
254	0xbe9a8164	-0.30176842
255	0x3e513147	0.20428954

fc1.bias f4 [32]
0	0x3e5b1fe8	0.2139889
1	0x3c388e8b	0.011264454
2	0x3dbf94fe	0.0935459
3	0xbceca0f2	-0.028885338
4	0xbd80a230	-0.06280935
5	0xbe3ccd20	-0.18437624
6	0xbe6bc1a1	-0.23023082
7	0xbd750873	-0.05982251
8	0xbe2c954a	-0.16853824
9	0x3c31fd70	0.010863647
10	0x3dafea59	0.0858962
11	0x3d1f3e04	0.038877502
12	0xbd57cedb	-0.052687507
13	0xbdfffa6c	-0.12498936
14	0xbd2748da	-0.04084096
15	0x3e5e52fe	0.21711347
16	0x3d6f83e8	0.058475405
17	0xbdcb5d08	-0.09929854
18	0x3d4125e9	0.047155295
19	0xbd1cb5d5	-0.038259346
20	0x3dd194dc	0.10233471
21	0xbd7e99a6	-0.06215825
22	0x3c015b34	0.00789528
23	0x3d48a30b	0.048983615
24	0x3dca49e6	0.09877376
25	0x3d05bbd6	0.032649837
26	0xbea1e060	-0.31616497
27	0x3b2c0846	0.0026250049
28	0xbd7b6eeb	-0.061385076
29	0x3c1f987e	0.009740947
30	0x3d8e7a67	0.0695694
31	0x3d64e4c3	0.055882227

fc2.weight f4 [32, 32]
0	0xbe97e240	-0.29664803
1	0x3db7e6f6	0.08979599
2	0xbdbdf223	-0.092746995
3	0xbd1c15d8	-0.03810677
4	0x3ef59383	0.47964105
5	0x3eab699a	0.33479005
6	0x3f212064	0.6294005
7	0xbd0c1112	-0.034195967
8	0x3e814804	0.25250256
9	0x3c8bcc10	0.017065078
10	0x3e6e23c3	0.2325583
11	0x3e54a6df	0.20766781
12	0xbb5c58b5	-0.003362221
13	0xbd43c352	-0.047793694
14	0x3ebd989b	0.3703049
15	0x3ddbab40	0.10726023
16	0xbe83f6b7	-0.25774166
17	0xbdcec105	-0.10095409
18	0x3e75a0a9	0.23987068
19	0xbde08179	-0.10962195
20	0xbec178f2	-0.37787586
21	0xbe485a84	-0.19565779
22	0x3e5748b4	0.21023828
23	0xbec64f21	-0.38732246
24	0x3e62ded0	0.22155309
25	0xbeaab0cd	-0.33338013
26	0x3dc132dd	0.094335295
27	0x3ec4841a	0.38382035
28	0x3eb5739f	0.35439774
29	0xbdd0d428	-0.101967156
30	0xbe099799	-0.13436736
31	0x3bbd84c4	0.005783649
32	0xbeb7738c	-0.35830343
33	0x3da5e589	0.08100421
34	0xbe8de5ca	-0.27714378
35	0xbd176e5e	-0.03697049
36	0xbdf04386	-0.11731629
37	0xbc3e2146	-0.011604613
38	0x3debd786	0.11515717
39	0x3e860091	0.26172307
40	0x3e6667e7	0.22500573
41	0x3e8e9879	0.27850702
42	0xbdcd7fe2	-0.10034157
43	0x3e1b6cc2	0.15178207
44	0x3de5bcbf	0.11217641
45	0xbd50059f	-0.05078661
46	0xbbce09bc	-0.0062877815
47	0xbe83ba14	-0.25727904
48	0xbeb94102	-0.3618241
49	0xbe7c63f0	-0.24647498
50	0x3d7820dc	0.060578212
51	0xbe645dbf	-0.22301386
52	0xbe27d06f	-0.16388105
53	0x3e18e2b5	0.14930232
54	0x3d94e701	0.07270623
55	0xbea43c7e	-0.32077402
56	0x3c5b47cb	0.013383816
57	0xbe0466de	-0.12929866
58	0x3ec18d85	0.37803283
59	0x3e91ebc3	0.28500184
60	0x3e13c8e3	0.14432101
61	0x3e15b338	0.14619148
62	0xbdf4a1c9	-0.119449206
63	0xbdcbd00a	-0.0995179
64	0xbeeb59db	-0.45966992
65	0x3ec50ab4	0.38484728
66	0xbedbb509	-0.42911556
67	0xbd8b7eed	-0.068113185
68	0xbda7bbb8	-0.081901014
69	0x3d96e194	0.07367244
70	0x3bfe711e	0.0077649495
71	0x3db6edbf	0.08932065
72	0x3d9a5fee	0.075378284
73	0x3e1716f3	0.14754848
74	0xbed08d8e	-0.40732998
75	0x3e8eab10	0.27864885
76	0x3f0c42f7	0.5478968
77	0x3ce5962f	0.028025715
78	0x3ed79960	0.42109203
79	0xbd4a0b9c	-0.049327478
80	0xbecefeaa	-0.40428668
81	0x3cc0cfc9	0.02353658
82	0x3ebe3590	0.3715024
83	0x3cf5a131	0.029984089
84	0xbeff39f5	-0.49848905
85	0x3e7be442	0.24598792
86	0x3ec7e733	0.39043579
87	0xbd4f2ba4	-0.05057873
88	0x3eab8a77	0.33504078
89	0xbe894668	-0.26811528
90	0x3eef912b	0.46790442
91	0xbd725efd	-0.05917262
92	0x3f022ff6	0.5085443
93	0xbe3005b0	-0.1718967
94	0xbef327b9	-0.47491243
95	0xbd936976	-0.071978495
96	0xbe05f6eb	-0.13082473
97	0x3e9a5272	0.30141026
98	0x3cdd5074	0.027015902
99	0xbe912313	-0.28347072
100	0x3e041579	0.12898816
101	0x3e96c8b9	0.29450014
102	0x3e9125c2	0.2834912
103	0x3dd5c9af	0.10438859
104	0x3e8555b3	0.26041946
105	0xbd428fb4	-0.047500327
106	0xbe161614	-0.1465686
107	0x3e1ff3f2	0.15620402
108	0x3e9fed43	0.31235704
109	0xbe343adc	-0.17600578
110	0x3ed3e729	0.413873
111	0xbe19ec07	-0.15031444
112	0xbe8c2f4c	-0.27379835
113	0xbe3dd240	-0.18537235
114	0xb934d7f9	-0.00017246594
115	0x3e84b875	0.2592198
116	0xbee527fc	-0.44757068
117	0xbe81ec0d	-0.25375405
118	0x3e8bd92a	0.2731412
119	0xbea5e8e5	-0.32404247
120	0x3e789544	0.2427569
121	0xbe80c184	-0.2514764
122	0x3e68d61a	0.22737923
123	0x3ed24a5b	0.41072354
124	0x3ee04d73	0.4380909
125	0xbd16ec57	-0.036846485
126	0xbe4898d1	-0.19589545
127	0xbe81cad2	-0.25350052
128	0x3d3abe95	0.04559191
129	0x3ea8fb63	0.33004293
130	0x3e86fa99	0.26363066
131	0x3ddbc16a	0.1073025
132	0x3da8b590	0.08237755
133	0xbec92967	-0.392894
134	0xbf50574f	-0.8138322
135	0x3db7e4fd	0.08979223
136	0x3e44b425	0.19209345
137	0x3b999e98	0.0046880953
138	0x3d3af701	0.045645718
139	0xbe99efc3	-0.30065736
140	0x3edc85b7	0.43070766
141	0x3dba72b5	0.0910391
142	0xbda11968	-0.07866174
143	0xbded7407	-0.11594396
144	0x3c4fb308	0.012676962
145	0xbd48d29b	-0.049028974
146	0xbedcb7ba	-0.43108922
147	0x3e1abd01	0.15111162
148	0xbd3e057c	-0.04639195
149	0x3e8bbad3	0.27290973
150	0x3e22edb2	0.15910986
151	0xbe60c704	-0.21950918
152	0x3e52fe2a	0.20604768
153	0xbe51609a	-0.20447007
154	0xbed45c7b	-0.41476807
155	0x3e91cd6e	0.28477043
156	0xbdd732ce	-0.10507737
157	0x3e98fe71	0.29881623
158	0xbc4d2399	-0.012520694
159	0x3e13995e	0.14413974
160	0x3e272b62	0.16325143
161	0x3e8f20c2	0.2795468
162	0x3e4b7776	0.1986979
163	0x3e5876da	0.21139088
164	0x3d0e861f	0.034795877
165	0xbe98cd0c	-0.29843938
166	0xbee37984	-0.44428647
167	0x3e0733b3	0.13203315
168	0xbd033eeb	-0.032042425
169	0x3da96837	0.082718305
170	0x3d986037	0.074402265
171	0xbdae4da6	-0.08510904
172	0x3e61c576	0.22047982
173	0x3d21f379	0.039538834
174	0xbeac9b07	-0.33712026
175	0x3db5e06f	0.08880698
176	0xbe1a2005	-0.15051277
177	0xbdf3331b	-0.11874982
178	0xbebea614	-0.37236083
179	0xbc07e8d7	-0.008295259
180	0x3dd022c1	0.10162879
181	0x3e01ed19	0.12688102
182	0xbe04aaad	-0.12955733
183	0xbda294c4	-0.07938531
184	0x3ded2b27	0.11580496
185	0xbcdc4664	-0.026889034
186	0xbdf1e268	-0.11810762
187	0xbe165ed2	-0.14684609
188	0xbd6fe195	-0.05856474
189	0x3e7706d7	0.24123703
190	0x3e4b4574	0.19850713
191	0x3e09cbd7	0.13456665
192	0xbc8dc501	-0.017305853
193	0x3e046506	0.12929162
194	0x3e37906e	0.1792619
195	0xbe27c36b	-0.1638314
196	0x3d623d19	0.05523405
197	0x3e44e629	0.19228424
198	0xbcf61a31	-0.030041786
199	0xbd84f77b	-0.06492516
200	0xbc40d57b	-0.011769648
201	0xbe13b31a	-0.1442379
202	0xbdcbef1f	-0.09957718
203	0x3d6a8d8d	0.0572639
204	0xbe6302ba	-0.22169009
205	0x3ced4f07	0.028968347
206	0x3e98baef	0.2983012
207	0xbdc740f6	-0.09729187
208	0x3d017c68	0.031612784
209	0x3e26f174	0.16303045
210	0x3e1f70f0	0.15570426
211	0x3de1f63b	0.11033293
212	0xbdf7efb4	-0.121062666
213	0xbe2a3a01	-0.16623689
214	0x3b1ab96c	0.0023609055
215	0x3e709d77	0.23497568
216	0x3e46fef3	0.19433193
217	0xbdc6a671	-0.09699715
218	0x3de22445	0.11042074
219	0xbe2b7ac3	-0.16746049
220	0xbe0e9662	-0.13924554
221	0xbe58b1d7	-0.2116159
222	0xbd184059	-0.03717074
223	0x3dee8347	0.11646133
224	0x3edc949e	0.43082136
225	0xbc39a8e3	-0.01133177
226	0x3f080804	0.5313723
227	0xbeaa3570	-0.33243895
228	0x3ece5f0a	0.40306884
229	0xbe0b0b85	-0.13578613
230	0x3e35d2c0	0.17756176
231	0xbe0a8c6e	-0.13530132
232	0xbea337e1	-0.3187857
233	0xbec1fbcf	-0.37887427
234	0x3ea47771	0.32122377
235	0xbddfe7c2	-0.10932876
236	0xbe818fe0	-0.2530508
237	0xbe298dc3	-0.16557984
238	0x3eb571bd	0.35438338
239	0x3e80bb82	0.25143057
240	0x3e15e364	0.14637524
241	0xbddce06a	-0.10784991
242	0x3db26280	0.08710194
243	0x3e5f6660	0.21816397
244	0x3dac5a2a	0.08415635
245	0xbee499dc	-0.44648635
246	0xbc91ad5f	-0.017782865
247	0x3e02ef80	0.12786674
248	0xbe6adcae	-0.22935745
249	0x3d951977	0.07280248
250	0xbeed9a18	-0.46406627
251	0xbc3176b3	-0.010831523
252	0xbe6fa2ff	-0.23402022
253	0x3d7174cb	0.058949273
254	0x3dd06e0a	0.10177238
255	0x3e8d6d93	0.2762266

fc2.bias f4 [32]
0	0xbe3a9e51	-0.18224455
1	0xbe6a99bd	-0.22910209
2	0xbd955522	-0.072916284
3	0xbda5a376	-0.08087818
4	0x3e8d7657	0.2762935
5	0xbda3b2ca	-0.07993086
6	0x3d980468	0.074227154
7	0xba31e62f	-0.0006786314
8	0x3e87cab5	0.2652184
9	0x3cf502f1	0.02990863
10	0xbe355fda	-0.17712346
11	0xbe8b437a	-0.27199918
12	0x3e0f81ec	0.14014405
13	0x3ddc1737	0.107466154
14	0xbd974522	-0.07386233
15	0xbd5ed0f3	-0.05439849
16	0x3d5b84c7	0.053593423
17	0xbd85c75a	-0.06532164
18	0x3e0691b0	0.13141513
19	0x3de43460	0.11142802
20	0x3e08ef4f	0.13372539
21	0xbe67f9fc	-0.22653955
22	0x3e2ee685	0.17080124
23	0x3e805cc1	0.25070766
24	0xba926f5b	-0.0011172103
25	0xbdc3597c	-0.09538552
26	0x3e17839b	0.14796297
27	0x3e75afcd	0.23992844
28	0x3da7d340	0.081945896
29	0x3de7b66f	0.11314093
30	0xbd98c903	-0.07460215
31	0xbe32fd94	-0.17479545

fc3.weight f4 [8, 32]
0	0xbe69577d	-0.2278728
1	0x3e9544cd	0.29154053
2	0x3eb2bd11	0.3490987
3	0x3e24acba	0.16081515
4	0xbf233cd6	-0.63764703
5	0xbe0cc385	-0.1374646
6	0x3e231880	0.15927315
7	0xbf2d07bf	-0.67589945
8	0x3e7ab2de	0.24482295
9	0xbd135494	-0.03596933
10	0x3dc623d1	0.096748
11	0xbeb2c6ed	-0.34917393
12	0xbe4c32ea	-0.19941297
13	0xbe5a7751	-0.21334578
14	0x3ea59a5b	0.32344326
15	0x3ebff9d5	0.37495294
16	0x3dd827ba	0.10554452
17	0xbebe9c1a	-0.3722847
18	0xbf03985c	-0.51404357
19	0xbcc51a05	-0.024060259
20	0xbdfb07ff	-0.122573845
21	0x3e8be7ab	0.27325186
22	0xbd96404f	-0.07336485
23	0xbbb74ddb	-0.005593998
24	0x3dc2d839	0.095138974
25	0x3eae1260	0.33998394
26	0xbdd3cdcc	-0.10341987
27	0x3ebca070	0.36841154
28	0xbd1d3f36	-0.03839036
29	0x3ec4f1c8	0.38465714
30	0x3cbae9f8	0.022816643
31	0x3f1830b2	0.59449303
32	0xbec61e3e	-0.38694948
33	0xbef7e60f	-0.48417708
34	0xbf001dad	-0.5004528
35	0xbebadb80	-0.3649559
36	0xbd81808c	-0.063233465
37	0x3e27a55d	0.16371675
38	0x3de08b92	0.10964121
39	0x3f0683d3	0.525449
40	0xbd273fc0	-0.04083228
41	0x3e50f492	0.20405796
42	0xbd52e677	-0.05148932
43	0xbe19ffcb	-0.15038984
44	0x3f1b4e25	0.60666114
45	0x3ef6d76a	0.48211223
46	0xbea80f13	-0.32824
47	0xbe8a18f4	-0.26972163
48	0x3f04006a	0.5156313
49	0x3db93440	0.09043169
50	0x3ca1011c	0.01965385
51	0x3e8bb865	0.2728912
52	0xbebc77cf	-0.36810157
53	0xbe101de2	-0.140739
54	0xbd839643	-0.064251445
55	0x3ebae787	0.36504766
56	0x3ec2cf79	0.38048914
57	0xbe987316	-0.29775304
58	0xba46c458	-0.0007582358
59	0x3eb6512c	0.35608804
60	0xbdcf5263	-0.10123136
61	0xbc93c5fe	-0.018038746
62	0xbe199a81	-0.15000345
63	0xbd95884d	-0.07301388
64	0xbf1f2386	-0.6216358
65	0xbda3ee75	-0.080044664
66	0xbee19578	-0.44059348
67	0xbf28e4cf	-0.65974134
68	0x3ebd1f21	0.36937812
69	0x3f0f8da9	0.5607553
70	0xbe9658bb	-0.2936457
71	0xbe44c11a	-0.19214287
72	0x3dd5618a	0.10418995
73	0xbeb5046d	-0.3535494
74	0xbe57b52c	-0.21065205
75	0x3dc9fd8d	0.09862814
76	0xbdc5227b	-0.09625717
77	0xbf1aa53e	-0.6040839
78	0xbee8cc5a	-0.45468408
79	0xbf1b253b	-0.60603684
80	0xbec93b09	-0.39302853
81	0x3e9a0669	0.30083016
82	0xbd96ccaf	-0.07363259
83	0x3e46df60	0.19421148
84	0x3f3092fd	0.68974286
85	0x3d23cc24	0.039989606
86	0x3e4890f1	0.19586541
87	0x3e0c0c72	0.13676623
88	0xbe1c26e8	-0.15249217
89	0x3e2bd86e	0.1678178
90	0xbe2ea56f	-0.17055295
91	0x3d981f2d	0.07427821
92	0x3e80d93d	0.2516574
93	0x3f25b3e1	0.647276
94	0xbe6e7208	-0.23285687
95	0x3e8944d6	0.2681033
96	0xbe5581b4	-0.20850259
97	0xbef29999	-0.4738281
98	0xbf9f2e6d	-1.2436043
99	0xbf091dd6	-0.5356115
100	0xbed8f614	-0.42375243
101	0xbe278af9	-0.16361608
102	0xbd7f2ab7	-0.062296595
103	0x3efd814b	0.49512705
104	0xbf8e6dcb	-1.1127256
105	0xbf0d5bad	-0.5521801
106	0x3e80c97c	0.2515372
107	0x3f49449d	0.7862032
108	0x3efc9f55	0.4934031
109	0xbecb3724	-0.39690506
110	0xbe5e50da	-0.2171053
111	0xbf1239f7	-0.571197
112	0x3f59662f	0.84921545
113	0x3dc33142	0.095308796
114	0xbeddb7a7	-0.43304178
115	0xbe568497	-0.20949017
116	0xbd0f54bd	-0.034992922
117	0x3f4ec1c0	0.8076439
118	0xbf12d886	-0.5736164
119	0xbf015ac5	-0.5052913
120	0x3e76a5f3	0.24086742
121	0xbe99a199	-0.30006102
122	0xbe07aa67	-0.13248597
123	0xbe5f4efc	-0.21807474
124	0xbf005b11	-0.50138956
125	0x3eff2689	0.49834087
126	0xbf1223bc	-0.57085776
127	0x3d4042eb	0.046938818
128	0x3b28e18b	0.00257692
129	0xbe17efc3	-0.14837556
130	0x36c0b1b3	5.742733e-06
131	0x3f0cd28a	0.5500876
132	0x3f41ad1c	0.7565477
133	0x3e562d0a	0.20915619
134	0x3e7534ca	0.23945919
135	0x3ed25a7f	0.41084668
136	0x3e0f4c42	0.13993934
137	0x3ddcb6a7	0.10777026
138	0x3d39d40d	0.045368243
139	0x3da7941f	0.08182549
140	0x3d4bab44	0.04972388
141	0x3f4bd535	0.79622203
142	0x3e48170e	0.19540045
143	0xbe02cd77	-0.12773691
144	0xbeadb105	-0.33924118
145	0x3eb2f2a6	0.3495075
146	0x3f7a7063	0.9782774
147	0xbdc57862	-0.09642102
148	0xbed29c67	-0.4113495
149	0xbf1f6095	-0.6225675
150	0x3eba7dcd	0.36424103
151	0x3e8c0e81	0.27354816
152	0xbeb40ec5	-0.35167518
153	0x3dced11a	0.10098477
154	0x3ebc11a1	0.367322
155	0xbd840f46	-0.06448226
156	0x3e09043f	0.13380526
157	0xbf58d6db	-0.84702843
158	0x3e577d74	0.2104395
159	0xbf3026ea	-0.6880938
160	0x3edf8701	0.43657687
161	0xbeafa5bd	-0.34306136
162	0x3ef37e4e	0.475573
163	0x3e76319c	0.24042362
164	0xbf2c6414	-0.6734021
165	0xbf077afb	-0.5292203
166	0x3e814d3c	0.25254238
167	0x3ed8d137	0.42347118
168	0xbdc4f6ee	-0.096174106
169	0x3f0fd648	0.5618634
170	0x3ea2ffd5	0.3183581
171	0xbdcee1b3	-0.101016425
172	0x3e9e1c7a	0.308811
173	0x3e900d96	0.28135365
174	0x3dd8c8e5	0.105851926
175	0x3e9d9b42	0.30782515
176	0x3e2c19bb	0.1680669
177	0xbe0ceb24	-0.13761574
178	0xbe21270c	-0.15737551
179	0x3cdcb54a	0.026941914
180	0xbf1b6038	-0.60693693
181	0x3db3543b	0.087563
182	0x3c5ac221	0.013351948
183	0x3c423446	0.011853283
184	0x3e049f06	0.12951288
185	0x3d1e108f	0.03859001
186	0x3c884921	0.016636433
187	0x3e9fba41	0.31196788
188	0xbe8e1093	-0.2774702
189	0xbf0d6d39	-0.55244786
190	0x3ee792c3	0.45229158
191	0xbeaae121	-0.33374885
192	0x3f8af572	1.0856154
193	0x3f240fa3	0.6408636
194	0x3f03d47f	0.5149612
195	0x3f4cf1dd	0.80056554
196	0xbe308a6d	-0.17240305
197	0xbe1dff15	-0.15429337
198	0xbe6c73e6	-0.23091087
199	0xbeacebfe	-0.33773798
200	0x3e84f338	0.2596681
201	0xbe96e76d	-0.2947344
202	0x3f19652c	0.5992
203	0x3e785c4d	0.2425396
204	0xbf1a5d93	-0.6029903
205	0xbe8ac072	-0.2709995
206	0x3f0cd05e	0.55005443
207	0x3f25b958	0.6473594
208	0xbf107791	-0.56432444
209	0xbebe564a	-0.37175208
210	0x3ee38e95	0.4444472
211	0xbe8160df	-0.2526922
212	0xbcf67d54	-0.030089058
213	0xbe605d3d	-0.21910568
214	0x3e012c2f	0.12614511
215	0xbe59c86d	-0.21267863
216	0xbeb37586	-0.350506
217	0xbeaefe93	-0.341786
218	0x3df04766	0.11732368
219	0xbee40d5f	-0.4454145
220	0x3d379734	0.044821933
221	0xbeab113c	-0.33411586
222	0x3f19db34	0.601001
223	0xbe882a3a	-0.26594716
224	0xbe3549c8	-0.17703927
225	0x3c5a1987	0.01331175
226	0x3ed37d75	0.41306654
227	0xbd86fad7	-0.06590813
228	0x3f07db0a	0.530686
229	0x3e535e36	0.20641407
230	0xbe51fe49	-0.20507158
231	0xbf180ea2	-0.5939733
232	0x3f3d62d1	0.73978907
233	0x3e1ba193	0.15198354
234	0xbeca3d44	-0.39499867
235	0xbf3ea502	-0.7447053
236	0xbec7170b	-0.38884768
237	0xbee502c5	-0.44728675
238	0x3d92cd0a	0.07168014
239	0x3e2a1038	0.1660775
240	0xbefde20c	-0.49586523
241	0xbc8b55a5	-0.017008612
242	0xbe63384a	-0.22189441
243	0x3e995713	0.29949245
244	0x3ee333f5	0.44375578
245	0xbe64dd90	-0.22350144
246	0x3f19f01d	0.6013201
247	0x3eb7c734	0.35894167
248	0xbe379bb7	-0.17930494
249	0x3ed6585c	0.41864288
250	0x3dfd80c9	0.123780794
251	0x3eaaa41f	0.3332834
252	0x3f01b96c	0.50673556
253	0x3e93e457	0.28885147
254	0x3e0602f9	0.13087071
255	0xbdd29abc	-0.102834195

fc3.bias f4 [8]
0	0xbd807abf	-0.06273412
1	0x3e9dc403	0.30813608
2	0xbda60723	-0.0810683
3	0xbe26b476	-0.16279778
4	0x3df44ece	0.11929093
5	0xbd543572	-0.051808782
6	0x3cbe6590	0.023241788
7	0x3d0f0420	0.034916043
